RL_experiments/state_dict.pt (torch, 5823 bytes, 8 tensors)

fc.0.weight f4 [10, 3]
0.12534094 0.55167776 3.9853852 0.44360358 -0.29305208 -3.3583872 -0.5687322 -1.234138
-5.0683656 -0.56334144 0.11537594 -3.328512 0.033315983 0.23658933 3.1853628 0.041147944
1.1037495 3.0773954 0.342466 1.1389127 4.4126744 0.5158979 0.1761524 -2.8866637
-0.47925177 -1.619246 -4.213456 0.029815156 -0.46346968 -3.1490865
00000000: 6059 003e c13a 0d3f 8d10 7f40 0220 e33e
00000010: ec0a 96be d1ef 56c0 6f98 11bf 3cf8 9dbf
00000020: 0d30 a2c0 2537 10bf 394a ec3d 5706 55c0
00000030: 5776 083d 7944 723e fcdc 4b40 bf8a 283d
00000040: aa47 8d3f 0cf4 4440 b457 af3e e4c7 913f
00000050: a134 8d40 e311 043f 4b61 343e 19bf 38c0
00000060: 7d60 f5be 7443 cfbf a2d4 86c0 ea3e f43c
00000070: e64b edbe a28a 49c0

fc.0.bias f4 [10]
-0.58767074 1.1599054 -0.14008524 1.5628161 -1.0366166 -1.3168147 0.20667493 0.7287376
0.942215 1.6549436
00000000: 9771 16bf c877 943f 8172 0fbe 5c0a c83f
00000010: daaf 84bf 628d a8bf 98a2 533e 8c8e 3a3f
00000020: 0135 713f 31d5 d33f

fc.2.weight f4 [20, 10]
-0.26734912 -0.14330079 0.43678045 0.061429773 -0.8063211 -0.6372434 -0.2911524 -0.30978435
0.13128023 -0.1550594 0.4939989 -0.07003845 0.02664688 -0.01639728 0.56539935 0.24482994
0.18058863 -0.19493671 -0.08197221 -0.4274952 -0.50985825 -0.30790633 0.43762112 0.44744945
-0.45520023 -0.3035335 -0.36105698 -0.07729438 0.45833898 -0.28481892 -0.33159065 -0.5320327
0.014055281 0.07186078 -0.19816436 -0.43626854 -0.11882962 -0.053922094 -0.0014524037 -0.22907421
-0.2291357 -0.19124043 -0.025070168 0.15187095 -0.42021397 -0.41324794 0.3176623 0.3363698
0.31258664 0.31791326 0.039562847 -0.19365539 -0.006676197 0.23702751 0.5019502 0.23110336
0.20531142 0.113044135 -0.24709572 -0.45265466 -0.29499015 0.06363354 0.029687006 0.06726528
-0.19907202 -0.3454374 -0.26440156 -0.3113491 -0.13575372 -0.10840665 -0.21326576 0.24283636
0.36251274 0.52601963 -0.4507963 0.16838281 -0.31533056 0.20347974 0.18185449 0.01317719
0.019779617 -0.06932508 -0.11186609 -0.3506348 0.4921819 0.35523236 0.38004804 -0.1557035
-0.30439064 -0.44595057 0.53526336 0.5631565 -0.28894883 -0.28034166 0.16898786 0.32246992
0.4584057 0.3866937 -0.09573562 0.49691713 -0.24431348 -0.17757969 0.408808 0.11773754
-0.69648415 -0.6359854 -0.39568833 -0.44448274 0.32480228 0.1661442 -0.6101441 -0.3166969
0.13823445 -0.09219207 -0.48587537 -0.54118866 0.1280801 -0.18299824 0.40657902 -0.05127474
-0.12604363 0.018489731 0.17579706 0.2763688 0.050210245 -0.39404413 -0.23973864 0.20406805
-0.07777695 0.71186095 -0.43321875 -0.47137246 0.27881616 0.02106919 -0.35792932 -0.3499301
-0.00874752 -0.22863379 -0.16907439 -0.50858873 0.13101564 -0.11517862 0.089149304 -0.17528054
0.25056422 0.31200486 0.04289007 0.088431664 -0.499939 -0.4719031 0.048998967 0.1267437
0.0065594367 0.06491491 -0.18277901 -0.012748211 0.23528312 0.20883861 -0.03662426 0.6170978
-0.014107756 0.21382788 -0.26193094 0.27191827 -0.3253476 -0.24406637 0.022266034 -0.14238544
0.068200916 0.7218627 0.045834955 -0.18481179 -0.3575497 -0.30910742 0.81283724 0.57003164
0.08781739 0.011623865 -0.36187473 -0.49320206 -0.7645727 -0.16582774 0.4729294 0.17431498
-0.26510513 -0.23918723 -0.49452975 -0.26982957 0.49515584 0.1265426 -0.0815967 -0.02181258
-0.083148785 0.22441627 0.5070551 0.47970355 -0.06603029 0.14916287 -0.34691447 -0.43802333
00000000: fce1 88be 71bd 12be b0a1 df3e c99d 7b3d
00000010: 0f6b 4ebf 6222 23bf ed11 95be 0e9c 9ebe
00000020: 536e 063e e4c7 1ebe 6ced fc3e 5270 8fbd
00000030: 8f4a da3c 9753 86bc 03be 103f b3b4 7a3e
00000040: 3aec 383e 7d9d 47be 0ce1 a7bd a7e0 dabe
00000050: 1286 02bf e6a5 9dbe e00f e03e 1818 e53e
00000060: 0110 e9be be68 9bbe 76dc b8be 844c 9ebd
00000070: 68ab ea3e c9d3 91be 40c6 a9be 4c33 08bf
00000080: 1f48 663c bf2b 933d 99eb 4abe 975e dfbe
00000090: f25c f3bd 6add 5cbd 955e beba 6e92 6abe
000000a0: 8da2 6abe 88d4 43be f45f cdbc 0f84 1b3e
000000b0: 4926 d7be 3c95 d3be a2a4 a23e aa38 ac3e
000000c0: 5b0b a03e 87c5 a23e a70c 223d 994d 46be
000000d0: 00c4 dabb 57b7 723e cf7f 003f 5ca6 6c3e
000000e0: 283d 523e af83 e73d a906 7dbe 5ac2 e7be
000000f0: f308 97be 4d52 823d 2a32 f33c 61c2 893d
00000100: 89d9 4bbe 2cdd b0be a45f 87be 2669 9fbe
00000110: 0603 0bbe 4e04 debd 5762 5abe 18aa 783e
00000120: 459b b93e 39a9 063f c6ce e6be 8b6c 2c3e
00000130: 0273 a1be fe5c 503e 1038 3a3e 24e5 573c
00000140: dd08 a23c 4ffa 8dbd 0c1a e5bd 6886 b3be
00000150: 44ff fb3e 04e1 b53e a895 c23e bd70 1fbe
00000160: 17d9 9bbe a253 e4be 0507 093f 062b 103f
00000170: 1af1 93be f188 8fbe 270b 2d3e c71a a53e
00000180: 27b4 ea3e b7fc c53e 0911 c4bd ec6b fe3e
00000190: 502d 7abe 73d7 35be 484f d13e 6120 f13d
000001a0: c94c 32bf f0cf 22bf a997 cabe 3e93 e3be
000001b0: 7c4c a63e b521 2a3e 6732 1cbf 1926 a2be
000001c0: 558d 0d3e 32cf bcbd a8c4 f8be 578b 0abf
000001d0: 6e27 033e e463 3bbe 202b d03e 7605 52bd
000001e0: 9511 01be c777 973c 2504 343e 3680 8d3e
000001f0: 42a9 4d3d 27c0 c9be 0c7e 75be 37f7 503e
00000200: 8649 9fbd 853c 363f d9ce ddbe bb57 f1be
00000210: fec0 8e3e 4b99 ac3c 8342 b7be 0a2a b3be
00000220: c251 0fbc fa1e 6abe d621 2dbe df32 02bf
00000230: f728 063e c5e2 ebbd e993 b63d be7c 33be
00000240: f449 803e 1abf 9f3e 7fad 2f3d a91b b53d
00000250: 01f8 ffbe 489d f1be 24b3 483d 1ac9 013e
00000260: 8bf0 d63b 1cf2 843d 6c2a 3bbe dfdd 50bc
00000270: 0fee 703e cad9 553e 5203 16bd 1ffa 1d3f
00000280: 3824 67bc b2f5 5a3e d01b 86be df38 8b3e
00000290: f693 a6be 89ec 79be 4267 b63c 7dcd 11be
000002a0: ecac 8b3d fecb 383f 6fbd 3b3d 4d3f 3dbe
000002b0: c110 b7be 5443 9ebe 1a16 503f 98ed 113f
000002c0: 9bd9 b33d 0672 3e3c a547 b9be fb84 fcbe
000002d0: 09bb 43bf bfce 29be cd23 f23e a07f 323e
000002e0: dcbb 87be 7fed 74be 0133 fdbe 1a27 8abe
000002f0: 1185 fd3e 6294 013e 2c1c a7bd 4cb0 b2bc
00000300: e949 aabd 61cd 653e 5dce 013f b49b f53e
00000310: e43a 87bd 27be 183e c69e b1be 9844 e0be

fc.2.bias f4 [20]
0.015605419 -0.37101686 0.059836026 0.10479796 0.11787169 -0.7256473 -0.10984282 0.42341697
-0.42356455 1.8635685 -0.052874975 0.07787873 1.0335567 -0.7731988 -0.51304543 0.49858686
0.9286662 -1.1030233 -0.008929034 -0.72617835
00000000: dfad 7f3c ecf5 bdbe 9f16 753d 50a0 d63d
00000010: b666 f13d 05c4 39bf 46f5 e0bd 1cca d83e
00000020: 74dd d8be 6a89 ee3f 6e93 58bd e27e 9f3d
00000030: 964b 843f 5bf0 45bf f256 03bf c746 ff3e
00000040: 11bd 6d3f de2f 8dbf 154b 12bc d3e6 39bf

fc.4.weight f4 [20, 20]
0.08210355 -1.6711484 0.15914008 0.20061633 -0.108235456 -0.05962332 -0.0019148431 0.24191742
-0.32406458 0.020949729 0.14051266 0.29561326 0.6795251 -0.19566116 -0.4845193 0.13052775
0.635091 -2.317448 0.22005238 -0.14375271 0.29732683 -1.4360944 0.22397316 0.23503491
0.20882697 -0.26858276 0.23104686 -1.0976619e-05 -0.208871 0.106942095 0.3205741 0.37857062
0.55094004 0.38821116 -0.23027614 -0.04848497 0.47054303 -2.891903 0.3046415 -0.0395708
-0.104373604 1.515558 -0.18046585 -0.018599385 -0.19643703 0.34945008 -0.18945965 0.30637583
0.195004 0.3033747 -0.38266873 -0.32749015 -0.30430073 -0.36192045 0.3499651 0.06369862
0.03597838 3.0075388 -0.013855792 -0.06611281 0.34040263 -1.5434453 0.26348507 -0.036517624
-0.0076174345 -0.31925586 0.46296427 0.397155 -0.38961035 0.013479108 -0.045989435 0.43288344
1.4414374 0.16877526 -0.115344144 0.17931631 0.71677166 -2.7176304 -0.008421531 -0.24249828
-0.15358883 1.6521018 -0.33984038 -0.4583423 0.28716183 0.24460578 -0.1751153 0.03254478
0.67205685 0.17029819 -0.37167805 -0.28815848 -0.3605537 -0.2624851 0.39428103 0.15872967
-0.13383713 2.7680488 -0.35286012 0.17135449 -0.32437623 1.9427509 -0.17558843 -0.025803087
-0.072071046 0.30637237 0.02642524 0.10539089 0.09821763 0.16365366 -0.20477785 -0.12877055
-0.549889 -0.061225217 0.3167948 0.13550614 -0.44181022 2.816898 -0.08434862 0.31461728
0.06052238 -1.4988127 0.21887377 0.09383767 0.22314206 -0.20645802 -0.06891789 0.052320424
-0.17327492 0.050543185 0.07284216 0.24437514 0.88615054 -0.22475338 -0.12170128 -0.08714082
0.6822859 -2.341698 0.33061782 -0.043197718 0.54671174 -1.1839292 0.5924196 0.4374108
-0.35825926 -0.51262707 0.17703463 -0.0029233454 -0.5991074 0.020907098 0.22545555 0.21123643
0.599922 0.019385843 -0.6537443 -0.033791382 0.015036514 -1.5871301 0.6000485 -0.64515483
0.14870316 -1.6077911 -0.009076073 0.11035961 0.06456886 -0.24685554 0.25068378 0.3760776
-0.16123216 -0.023224147 -0.014318433 0.10522518 1.1720458 0.049762852 -0.43926463 0.102568746
0.5850731 -2.7711036 0.31975433 -0.13092901 0.22908022 0.17082168 0.06626585 0.09056537
0.20757619 0.12657915 0.1816674 0.13232037 0.1408173 0.3235224 0.13199262 -0.012138669
0.5012773 -0.008808213 0.04465814 0.33119383 0.24155334 1.0746676 -0.0097999135 -0.14305003
-0.28987277 1.4189494 -0.039655566 -0.2902924 -0.038283996 0.22894345 -0.51133037 0.035331167
0.49044472 0.16677508 -0.100076 -0.31128967 -0.4766181 -0.2271472 0.33167312 0.19039123
-0.1644483 2.7605226 -0.038583905 0.25859702 -0.14401448 -1.2047505 -0.03864374 -0.09432625
0.08461762 -0.14481944 -0.009847995 -0.09392627 -0.030540872 -0.30525905 -0.13118632 -0.09227756
-0.3079522 0.09413153 0.1367562 -0.32886162 -0.40887946 -1.6293707 -0.12706758 -0.19297272
0.061065685 1.3807068 0.0004775222 0.07760462 -0.17106317 0.34904817 -0.2832116 0.30780923
0.28987494 0.28849936 -0.36832723 -0.08884363 -0.39395884 -0.30587813 0.08516408 0.06491888
00000000: e825 a83d 31e8 d5bf 9ef5 223e 5e6e 4d3e
00000010: 8daa ddbd 9537 74bd 79fb faba 33b9 773e
00000020: cbeb a5be c49e ab3c 8de2 0f3e 9f5a 973e
00000030: 5bf5 2d3f 665b 48be ea12 f8be 11a9 053e
00000040: 5395 223f 1151 14c0 6955 613e e933 13be
00000050: 393b 983e f1d1 b7bf 3859 653e feac 703e
00000060: bdd6 553e ae83 89be 8c97 6c3e 3828 38b7
00000070: 48e2 55be 7504 db3d 4a22 a43e 02d4 c13e
00000080: 680a 0d3f 9dc3 c63e 82cd 6bbe 2d98 46bd
00000090: 04eb f03e f014 39c0 f8f9 9b3e fe14 22bd
000000a0: d4c1 d5bd cefd c13f 0acc 38be bd5d 98bc
000000b0: ca26 49be 1feb b23e b601 42be 4bdd 9c3e
000000c0: 21af 473e ee53 9b3e 28ed c3be caac a7be
000000d0: 4ecd 9bbe a34d b9be a02e b33e 6c74 823d
000000e0: 115e 133d 847b 4040 6703 63bc 2766 87bd
000000f0: 4149 ae3e 9e8f c5bf 84e7 863e 8193 15bd
00000100: ac9b f9bb 8175 a3be a709 ed3e e657 cb3e
00000110: 027b c7be 7ad7 5c3c 6b5f 3cbd e6a2 dd3e
00000120: 0581 b83f 6cd3 2c3e 8d39 ecbd b29e 373e
00000130: 597e 373f a8ed 2dc0 76fa 09bc 7851 78be
00000140: 6446 1dbe 1278 d33f 8fff adbe d8ab eabe
00000150: e006 933e f079 7a3e 6d51 33be ad4d 053d
00000160: eb0b 2c3f a662 2e3e 964c bebe 8289 93be
00000170: 7f9a b8be 7264 86be 34df c93e 088a 223e
00000180: 9a0c 09be b627 3140 15aa b4be 8d77 2f3e
00000190: a414 a6be 10ac f83f 74cd 33be ff60 d3bc
000001a0: fc99 93bd d7dc 9c3e bf79 d83c 2ed7 d73d
000001b0: 5326 c93d d394 273e 49b1 51be 6ddc 03be
000001c0: 87c5 0cbf 4bc7 7abd ee32 a23e 1fc2 0a3e
000001d0: f334 e2be 0f48 3440 f8be acbd 8415 a13e
000001e0: 51e6 773d 18d9 bfbf 7220 603e f72d c03d
000001f0: 5a7f 643e bb69 53be d324 8dbd f14d 563d
00000200: fb6e 31be 5f06 4f3d 452e 953d 7a3d 7a3e
00000210: c3da 623f c025 66be 853e f9bd e376 b2bd
00000220: 4aaa 2e3f 61de 15c0 bd46 a93e 17f0 30bd
00000230: 4df5 0b3f fe8a 97bf d0a8 173f 4ff4 df3e
00000240: c26d b7be 873b 03bf 9148 353e 9995 3fbb
00000250: 1a5f 19bf 5d45 ab3c d2dd 663e 5d4e 583e
00000260: 7d94 193f 0fcf 9e3c c95b 27bf d568 0abd
00000270: b65b 763c 1427 cbbf c79c 193f de28 25bf
00000280: a445 183e 19cc cdbf cfb3 14bc 3804 e23d
00000290: ae3c 843d b3c7 7cbe a059 803e 3e8d c03e
000002a0: 0b1a 25be 9140 bebc dc97 6abc 4d80 d73d
000002b0: 9905 963f 22d4 4b3d 4be7 e0be 900f d23d
000002c0: 5ac7 153f c359 31c0 d7b6 a33e 4112 06be
000002d0: 0194 6a3e e1eb 2e3e 64b6 873d 567a b93d
000002e0: da8e 543e f79d 013e 0507 3a3e fe7e 073e
000002f0: 6932 103e baa4 a53e 1329 073e 45e1 46bc
00000300: b653 003f 5350 10bc 74eb 363d 3d92 a93e
00000310: c259 773e b58e 893f d18f 20bc b57b 12be
00000320: 346a 94be 22a0 b53f e06d 22bd 35a1 94be
00000330: aecf 1cbd 2770 6a3e 8ce6 02bf 6ab7 103d
00000340: 921b fb3e 16c7 2a3e a5f4 ccbd 5c61 9fbe
00000350: 4a07 f4be 4799 68be 0fd1 a93e ebf5 423e
00000360: 2365 28be 67ac 3040 280a 1ebd d466 843e
00000370: 8878 13be 4435 9abf e648 1ebd 1f2e c1bd
00000380: 014c ad3d 8c4b 14be 7c59 21bc 6b5c c0bd
00000390: da30 fabc ea4a 9cbe b555 06be 04fc bcbd
000003a0: e9ab 9dbe 08c8 c03d d109 0c3e 8d60 a8be
000003b0: a658 d1be 388f d0bf 011e 02be a49a 45be
000003c0: 0320 7a3d 00bb b03f f25b fa39 2cef 9e3d
000003d0: 2f2b 2fbe 71b6 b23e 1c01 91be 2c99 9d3e
000003e0: 7d6a 943e 30b6 933e 6395 bcbe a6f3 b5bd
000003f0: f9b4 c9be 0f9c 9cbe 816a ae3d 31f4 843d

fc.4.bias f4 [20]
0.57176965 0.08121007 0.04971941 0.85306466 0.091763765 0.19900462 0.39551473 0.7469202
0.25261486 0.36614418 0.51173306 -0.165394 0.22647421 0.6660926 0.11252118 0.09499822
0.69103867 0.9013933 0.24613303 0.0072853738
00000000: 7f5f 123f 7751 a63d 94a6 4b3d 7262 5a3f
00000010: a4ee bb3d dec7 4b3e e880 ca3e 2a36 3f3f
00000020: bc56 813e 4077 bb3e f000 033f 0b5d 29be
00000030: dbe8 673e 0b85 2a3f 8171 e63d 6d8e c23d
00000040: e9e7 303f b6c1 663f 4c0a 7c3e 25ba ee3b

fc.6.weight f4 [3, 20]
-1.4993339 -0.2737766 0.48609653 -1.9851649 0.41173437 0.5146235 -1.4647171 -0.99359715
-1.7797326 0.015040638 0.596788 -0.47500992 0.37302068 -1.2496773 0.567453 0.41496018
-1.667741 -2.1332653 -0.72503924 0.48161912 -1.4024638 -0.44784048 0.5945977 -1.9243242
0.3794724 0.5606216 -1.6418189 -0.8509166 -1.7605091 0.06348755 0.6112899 -0.32466424
0.58282596 -0.9090249 0.6835756 0.2847076 -1.2572845 -2.153524 -0.78662884 0.23522863
-1.9119197 -0.28842914 0.3291067 -2.3213816 0.49433973 0.557744 -1.9760357 -0.71960044
-1.9348364 0.24343887 0.4625282 -0.29482013 0.36454538 -1.316034 0.4693329 0.64059985
-1.9483614 -2.4163537 -0.7952446 0.49255872
00000000: 2cea bfbf 722c 8cbe a5e1 f83e e219 febf
00000010: d9ce d23e 5ebe 033f da7b bbbf 625c 7ebf
00000020: 47ce e3bf 026d 763c 19c7 183f 8034 f3be
00000030: 91fc be3e 6df5 9fbf 9a44 113f a975 d43e
00000040: 8978 d5bf 6b87 08c0 2c9c 39bf c896 f63e
00000050: ef83 b3bf 594b e5be 8e37 183f 4150 f6bf
00000060: 354a c23e e684 0f3f 1f27 d2bf acd5 59bf
00000070: 5d58 e1bf c305 823d 7f7d 1c3f 643a a6be
00000080: 1534 153f dbb5 68bf cffe 2e3f 32c5 913e
00000090: b3ee a0bf 56d3 09c0 8260 49bf c6df 703e
000000a0: c9b9 f4bf fcac 93be ac80 a83e 8491 14c0
000000b0: 191a fd3e 50c8 0e3f bdee fcbf bc37 38bf
000000c0: b8a8 f7bf 0a48 793e 7fd0 ec3e aaf2 96be
000000d0: b1a5 ba3e cd73 a8bf 674c f03e 5afe 233f
000000e0: e863 f9bf 8aa5 1ac0 2695 4bbf a830 fc3e

fc.6.bias f4 [3]
-0.10346877 1.3262428 -0.8675465
00000000: 6fe7 d3bd 53c2 a93f 8717 5ebf
